----------------------------------------------------------------
        Layer (type)         Output Shape     Filter      MAC #  Param #
================================================================
1
            Conv2d-1   [-1, 64, 184, 184]     (3, 3)   19501056      640
       BatchNorm2d-2   [-1, 64, 184, 184]       None          0      128
            Conv2d-5   [-1, 64, 184, 184]     (3, 3) 1248067584   36,928
       BatchNorm2d-6   [-1, 64, 184, 184]       None          0      128
            Conv2d-9    [-1, 128, 92, 92]     (3, 3)  624033792   73,856
      BatchNorm2d-10    [-1, 128, 92, 92]       None          0      256
           Conv2d-13    [-1, 128, 92, 92]     (3, 3) 1248067584  147,584
      BatchNorm2d-14    [-1, 128, 92, 92]       None          0      256
           Conv2d-17    [-1, 256, 46, 46]     (3, 3)  624033792  295,168
      BatchNorm2d-18    [-1, 256, 46, 46]       None          0      512
           Conv2d-21    [-1, 256, 46, 46]     (3, 3) 1248067584  590,080
      BatchNorm2d-22    [-1, 256, 46, 46]       None          0      512
           Conv2d-25    [-1, 256, 46, 46]     (3, 3) 1248067584  590,080
      BatchNorm2d-26    [-1, 256, 46, 46]       None          0      512
  ConvTranspose2d-29    [-1, 256, 46, 46]     (3, 3) 1248067584  590,080
      BatchNorm2d-30    [-1, 256, 46, 46]       None          0      512
  ConvTranspose2d-33    [-1, 256, 46, 46]     (3, 3) 1248067584  590,080
      BatchNorm2d-34    [-1, 256, 46, 46]       None          0      512
  ConvTranspose2d-37    [-1, 128, 46, 46]     (3, 3)  624033792  295,040
      BatchNorm2d-38    [-1, 128, 46, 46]       None          0      256
  ConvTranspose2d-41    [-1, 128, 92, 92]     (3, 3) 1248067584  147,584
      BatchNorm2d-42    [-1, 128, 92, 92]       None          0      256
  ConvTranspose2d-45     [-1, 64, 92, 92]     (3, 3)  624033792   73,792
      BatchNorm2d-46     [-1, 64, 92, 92]       None          0      128
  ConvTranspose2d-49   [-1, 64, 184, 184]     (3, 3) 1248067584   36,928
      BatchNorm2d-50   [-1, 64, 184, 184]       None          0      128
  ConvTranspose2d-53    [-1, 4, 184, 184]     (3, 3)   78004224    2,308
      BatchNorm2d-54    [-1, 4, 184, 184]       None          0        8
================================================================
Total params: 3,474,252
Trainable params: 3,474,252
Non-trainable params: 0
Total MACs: 12,578,181,120
----------------------------------------------------------------
Input size (MB): 0.13
Forward/backward pass size (MB): 408.12
Params size (MB): 13.25
…
